…
hTorchLM.truth_methods.matrix_degree_uncertainty.MatrixDegreeUncertainty object at 0x000002513AEF4BE0>, <TruthTorchLM.truth_methods.eccentricity_uncertainty.EccentricityUncertainty object at 0x000002513B109480>]', 'truth_methods': ['MatrixDegreeUncertainty', 'EccentricityUncertainty'], 'truth_methods_name': ['MatrixDegreeUncertainty with {\'normalizer\': <TruthTorchLM.normalizers.sigmoid_normalizer.SigmoidNormalizer object at 0x000002513B0B3F10>, \'model_for_entailment\': DebertaForSequenceClassification(\n  (deberta): DebertaModel(\n    (embeddings): DebertaEmbeddings(\n      (word_embeddings): Embedding(50265, 1024, padding_idx=0)\n      (LayerNorm): DebertaLayerNorm()\n      (dropout): Dropout(p=0.1, inplace=False)\n    )\n    (encoder): DebertaEncoder(\n      (layer): ModuleList(\n        (0-23): 24 x DebertaLayer(\n          (attention): DebertaAttention(\n            (self): DisentangledSelfAttention(\n              (in_proj): Linear(in_features=1024, out_features=3072, bias=False)\n              (pos_dropout): Dropout(p=0.1, inplace=False)\n              (pos_proj): Linear(in_features=1024, out_features=1024, bias=False)\n              (pos_q_proj): Linear(in_features=1024, out_features=1024, bias=True)\n              (dropout): Dropout(p=0.1, inplace=False)\n            )\n            (output): DebertaSelfOutput(\n              (dense): Linear(in_features=1024, out_features=1024, bias=True)\n              (LayerNorm): DebertaLayerNorm()\n              (dropout): Dropout(p=0.1, inplace=False)\n            )\n          )\n          (intermediate): DebertaIntermediate(\n            (dense): Linear(in_features=1024, out_features=4096, bias=True)\n            (intermediate_act_fn): GELUActivation()\n          )\n          (output): DebertaOutput(\n            (dense): Linear(in_features=4096, out_features=1024, bias=True)\n            (LayerNorm): DebertaLayerNorm()\n            (dropout): Dropout(p=0.1, inplace=False)\n          )\n        )\n      )\n      (rel_embeddings): Embedding(1024, 1024)\n    )\n  )\n  (pooler): ContextPooler(\n    (dense): Linear(in_features=1024, out_features=1024, bias=True)\n    (dropout): Dropout(p=0, inplace=False)\n  )\n  (classifier): Linear(in_features=1024, out_features=3, bias=True)\n  (dropout): Dropout(p=0.1, inplace=False)\n), \'tokenizer_for_entailment\': DebertaTokenizer(name_or_path=\'microsoft/deberta-large-mnli\', vocab_size=50265, model_max_length=1000000000000000019884624838656, is_fast=False, padding_side=\'right\', truncation_side=\'right\', special_tokens={\'bos_token\': \'[CLS]\', \'eos_token\': \'[SEP]\', \'unk_token
…
